alpha-beta-CROWN/outs/resnet2b.onnx (onnx, 451752 bytes, 16 tensors)

conv1.weight f4 [8, 3, 3, 3]
0.17979857 0.00085848075 0.18901934 0.0014477907 0.0009968939 0.0010452216 0.2723516 0.0011546554
0.29057208 0.18572894 0.00042252798 0.1581149 0.0012233627 0.00052818476 0.0008086372 0.20024602
0.0005849151 0.18593629 0.06583015 0.00077885593 0.049963456 0.0012026023 0.0014151136 0.0010111587
0.059045836 0.0010683307 0.017147724 -0.15684776 -0.00094585115 -0.18257909 -0.0020969242 -0.0015080476
-0.0019237887 -0.27152148 -0.0018938718 -0.29650846 -0.19952029 -0.00034898293 -0.19288057 -0.0019619584
-0.0006112095 -0.0016654611 -0.24820052 -0.0014093547 -0.24098635 -0.060477294 0.000799691 -0.037711397
-0.00035737178 0.00043129586 -0.00014488214 -0.064196 -0.00010338699 -0.016081076 -0.008594652 0.0002580372
0.026826555 -0.00096796884 2.5435316e-05 0.0006897951 -0.009638264 0.00042258503 0.10288085 -0.19625737
0.00016692025 -0.12407897 -0.00092900085 -0.0001603671 0.0005034428 -0.15784933 1.3438073e-05 -0.04355429
-0.057654288 0.0012396021 0.08081728 0.0009810412 0.0015992646 0.0036717672 0.20356047 0.0027708123
0.7408473 0.13257493 0.0009927173 0.6627153 -0.0002926479 5.9735856e-05 -0.00012201911 -0.10111345
-0.0019498955 -0.6294025 0.067655444 0.00062307133 0.49144074 -0.00031054317 -0.00020518868 -0.00015728231
-0.054646716 -0.0013576318 -0.5061675 -0.00930255 0.0006744465 0.35977152 -8.629709e-05 0.00022831156
-1.5560039e-06 -0.021848276 -0.0011926801 -0.3878224 0.043026708 -0.00043918352 0.014171395 0.0011616932
4.383999e-05 -0.0018691634 0.64641184 0.00042309807 -0.5411452 -0.0070431 -0.0006931589 -0.076517805
0.0006842273 -0.0001958064 -0.0024586958 0.46799013 -0.0001429515 -0.62172544 0.015091856 -0.00040290947
0.026253715 0.0011847405 -0.00022193654 -0.001876683 0.48240104 -1.5041093e-06 -0.42226097 0.38670933
0.001498223 0.41804984 0.0024006066 0.0014397536 0.002143576 0.42955145 0.0017849212 0.4637738
-0.25878254 -0.0012620306 -0.25246322 -0.00096655375 -0.0010855593 -0.0012269578 -0.26846918 -0.0009976263
-0.24883601 -0.15947694 -0.0012026838 -0.16655765 -0.0011083335 -0.0010546185 -0.0015704203 -0.19730824
-0.0014348634 -0.20750912 0.06943484 -0.00020067053 -0.060804654 -0.0024763981 0.00027747004 0.0013095802
-0.6319658 0.00026483648 0.66506976 0.049061287 -0.00048275615 -0.025303103 -0.0023334303 -0.0002933027
0.00080981536 -0.56475127 -8.664207e-05 0.5126274 0.07653243 -0.00093204866 -0.087704256 -0.0024653922
-0.0004435022 0.0005129179 -0.489085 -0.0006986972 0.50181323 -0.2495321 -0.0015961303 -0.29767856
-0.0013201035 -0.0013326044 -0.0017011 -0.31141195 -0.0019681007 -0.35478985 0.09448567 -0.00032107267
0.05046021 0.00038119016 -0.0004736247 -0.00017357426 0.057318788 -0.00062212494 0.023864312 0.47892335
0.0016448818 0.33254424 0.003190093 0.0013270559 0.0017763422 0.3874128 0.0008558761 0.2543048
00000000: 1e1d 383e ab0b 613a 498e 413e cbc3 bd3a
00000010: 35aa 823a d1ff 883a ab71 8b3e ce57 973a
00000020: ddc5 943e ba2f 3e3e bf86 dd39 dfe8 213e
00000030: 3e59 a03a e175 0a3a b9fa 533a 4b0d 4d3e
00000040: fd54 193a 1566 3e3e f5d1 863d 232c 4c3a
00000050: 7ba6 4c3d a3a0 9d3a 557b b93a db88 843a
00000060: 0cda 713d 3b07 8c3a 6279 8c3c b39c 20be
00000070: fff2 77ba 03f6 3abe 8d6c 09bb aea9 c5ba
00000080: a327 fcba dd04 8bbe cb3b f8ba f5cf 97be
00000090: 0c4f 4cbe b2f7 b6b9 7c82 45be 3394 00bb
000000a0: 9339 20ba 9a4b daba 4728 7ebe 19ba b8ba
000000b0: 20c5 76be 0ab7 77bd 5ba2 513a 4477 1abd
000000c0: a15d bbb9 8d1f e239 81eb 17b9 3179 83bd
000000d0: 78d1 d8b8 76bc 83bc 95d0 0cbc 2b49 8739
000000e0: 5dc3 db3c 4abf 7dba ed5d d537 5ed3 343a
000000f0: cfe9 1dbc 678e dd39 32b3 d23d b1f7 48be
00000100: 5007 2f39 1d1d febd 3188 73ba 3728 28b9
00000110: 79f9 033a 41a3 21be 1674 6137 fc65 32bd
00000120: e726 6cbd 257a a23a 8883 a53d 4896 803a
00000130: 6a9e d13a 08a2 703b 2872 503e 8496 353b
00000140: 2ba8 3d3f b9c1 073e 111e 823a b6a7 293f
00000150: 896e 99b9 e38c 7a38 83e4 ffb8 9214 cfbd
00000160: a393 ffba 8620 21bf f08e 8a3d 9c55 233a
00000170: 1f9e fb3e 66d0 a2b9 eb27 57b9 26ec 24b9
00000180: 3cd5 5fbd 90f2 b1ba 3194 01bf b969 18bc
00000190: 57cd 303a f933 b83e 66fa b4b8 eb66 6f39
000001a0: e3d7 d0b5 28fb b2bc b453 9cba a890 c6be
000001b0: c63c 303d 3742 e6b9 242f 683c f543 983a
000001c0: d5e0 3738 b7fe f4ba 3f7b 253f 43d3 dd39
000001d0: 7e88 0abf cec9 e6bb 1bb5 35ba 5eb5 9cbd
000001e0: b85d 333a 6151 4db9 1222 21bb 679c ef3e
000001f0: 40e5 15b9 6629 1fbf d543 773c 983d d3b9
00000200: 0812 d73c 4b49 9b3a a3b7 68b9 08fb f5ba
00000210: 45fd f63e cde0 c9b5 9732 d8be c4fe c53e
00000220: 0660 c43a a10a d63e 7f53 1d3b 1db6 bc3a
00000230: 3d7b 0c3b 2bee db3e 04f4 e93a c273 ed3e
00000240: 257f 84be b86a a5ba dc42 81be 5360 7dba
00000250: 5349 8eba dfd1 a0ba cb74 89be c9c2 82ba
00000260: dece 7ebe ec4d 23be 5fa3 9dba 178e 2abe
00000270: 8045 91ba 203b 8aba 90d6 cdba 2c0b 4abe
00000280: 0712 bcba 457d 54be da33 8e3d 166b 52b9
00000290: 4d0e 79bd 114b 22bb 6679 9139 38a6 ab3a
000002a0: 83c8 21bf c0d9 8a39 0342 2a3f 7df4 483d
000002b0: 6f1a fdb9 7448 cfbc 77ec 18bb 6cc6 99b9
000002c0: ca49 543a 8a93 10bf 9bb3 b5b8 8d3b 033f
000002d0: 09bd 9c3d ba54 74ba 4a9e b3bd 6b92 21bb
000002e0: dc85 e8b9 5675 063a 5969 fabe c628 37ba
000002f0: d576 003f 5885 7fbe 3f35 d1ba 5369 98be
00000300: 5307 adba c9aa aeba 72f7 deba 6371 9fbe
00000310: 40fb 00bb 04a7 b5be b481 c13d a555 a8b9
00000320: 5daf 4e3d 7ada c739 d550 f8b9 7c01 36b9
00000330: 1bc7 6a3d 1916 23ba 177f c33c 7135 f53e
00000340: 1399 d73a 3d43 aa3e e110 513b 9bf0 ad3a
00000350: 27d4 e83a f85a c63e df5c 603a 3d34 823e

conv1.bias f4 [8]
0.31103995 -0.29683208 0.67722315 -0.15755756 -0.14426269 0.025402954 -0.124400094 0.40129453
00000000: a140 9f3e 60fa 97be 7f5e 2d3f c556 21be
00000010: 99b9 13be db19 d03c 7ac5 febd 7a76 cd3e

layer1.0.conv1.weight f4 [16, 8, 3, 3]
0.11532613 -0.15681939 0.084700376 0.14908136 -0.18633468 0.091729686 0.057923455 -0.18214488
0.007990905 -0.05716961 0.13467562 -0.07647307 -0.15517263 0.21008736 -0.14237049 -0.07477386
0.18366325 -0.03593213 0.02254941 -0.17720346 0.13409038 0.13708498 -0.3004332 0.23745783
0.033511683 -0.16539906 0.09537332 0.009724717 -0.075906195 0.0334295 -0.059102435 -0.037771925
-0.08041707 -0.025021857 -0.0698066 -0.06739282 -0.013419549 0.17742018 -0.12298335 -0.0602642
0.29006213 -0.24569559 -0.00037447055 0.24038073 -0.11418691 -0.025800288 0.03585163 0.008471713
0.0072908434 -0.00463264 -0.0036071618 -0.00045947742 -0.03518855 -0.022228051 0.0037475165 -0.119826615
0.21117434 0.011820305 -0.20818362 0.36180285 -0.007126324 -0.13512696 0.23741603 0.024166616
0.01730711 0.0023967512 0.016364863 0.065234594 -0.043406036 0.0052001337 0.013325198 -0.12484737
-5.5229503e-07 -5.4600364e-06 -1.4966467e-06 -2.3239365e-06 -3.7902166e-06 -9.861562e-07 -1.9766323e-06 -1.2911545e-07
1.07031546e-07 -4.74263e-06 -3.581522e-07 7.515598e-07 -1.3313323e-06 5.9275783e-07 -2.5890436e-06 -4.308491e-06
-6.69144e-07 -4.1514795e-06 6.2083996e-07 1.5039092e-07 -2.2686393e-06 -1.950841e-06 -1.952654e-07 -2.5035492e-06
-9.158625e-07 -2.8544787e-06 -3.1932766e-06 -9.770578e-07 4.4829656e-07 -9.5175494e-08 -3.7895697e-07 -1.0983428e-06
-2.0315615e-06 -1.0107244e-06 -2.9526375e-06 -2.9191538e-06 2.696141e-07 5.361825e-07 -3.1043014e-06 -2.2695892e-06
1.3059571e-06 6.0153786e-07 -1.474583e-06 5.982187e-08 -4.1195676e-06 -5.3562385e-06 -6.719753e-07 -1.7982475e-06
-5.9873664e-06 -1.93536e-06 -1.8622026e-06 -4.433801e-06 -5.0793415e-06 -4.9072482e-06 -2.507563e-06 -3.2184584e-08
-1.4387401e-06 -7.632463e-07 -1.9378974e-06 4.7558206e-07 -2.4143092e-06 -1.6508891e-06 -2.5787715e-06 2.3227449e-07
-3.4166478e-06 -3.8050625e-06 -3.1741617e-06 8.32422e-07 1.4507103e-07 1.1775559e-06 -5.3194594e-07 -4.2322827e-06
-0.22943945 0.042809628 0.18942289 0.17710447 -0.27790532 -0.044332743 0.31307027 0.033454712
-0.21338858 0.16604237 0.0069000344 -0.20958064 -0.14721103 0.24020301 0.053393476 -0.3008495
-0.005323126 0.17149365 -0.07833547 -0.0029905078 0.13393843 0.12746432 -0.21482904 -0.039254513
0.1268379 0.037540197 -0.077781685 0.0067412434 0.10739543 -0.047985014 -0.074379824 0.06769247
0.13745333 0.06704473 -0.054230075 0.087749146 0.13048218 -0.07778746 -0.029554075 0.18717276
0.266464 -0.056065544 -0.14719318 0.112460144 0.11818109 0.0010487786 0.0045064227 0.0016065974
0.02462308 -0.017730938 -0.021654759 0.04363684 -0.025168784 -0.035281133 -0.055206574 0.23116265
0.12512457 -0.05615245 -0.03946955 0.1747844 0.18923087 0.10095022 -0.012619191 -0.0638303
-0.0066754865 0.12155784 0.034729827 -0.139734 0.018930009 0.11467269 -0.012398051 -0.10343464
0.25467342 0.03712414 -0.28669578 0.028382173 -0.3133019 0.042000186 -0.18113674 0.042785503
0.2745271 -0.29747042 0.0043128165 0.252343 0.048319172 0.21980132 -0.03469262 0.1476513
-0.0038361503 -0.26357552 0.1534748 -0.10197126 -0.039356027 -0.16436829 -0.04779455 0.10440379
0.018006798 0.10912713 0.09768146 0.016244689 0.07839011 -0.016814869 0.13650848 0.0018531593
-0.028352577 0.0024524755 -0.078992486 0.040317703 0.15407921 0.17405927 -0.028505785 0.16840525
00000000: 1b30 ec3d 4395 20be 6477 ad3d c9a8 183e
00000010: 85ce 3ebe c6dc bb3d 2541 6d3d 3084 3abe
00000020: 49ec 023c ae2a 6abd 68e8 093e ea9d 9cbd
00000030: 93e5 1ebe 2421 573e 92c9 11be 0a23 99bd
00000040: 3812 3c3e 922d 13bd 8ab9 b83c d374 35be
00000050: fd4e 093e 0160 0c3e 61d2 99be 2528 733e
00000060: 8c43 093d 5f5e 29be 1653 c33d 6b54 1f3c
00000070: b574 9bbd 5fed 083d 6515 72bd bcb6 1abd
00000080: b4b1 a4bd a3fa ccbc c3f6 8ebd 3f05 8abd
00000090: abdd 5bbc a3ad 353e b2de fbbd 98d7 76bd
000000a0: 0683 943e a097 7bbe 9654 c4b9 5e26 763e
000000b0: d4da e9bd 205b d3bc 29d9 123d f1cc 0a3c
000000c0: 07e8 ee3b 67cd 97bb 2266 6cbb 04e6 f0b9
000000d0: de21 10bd 9a17 b6bc e598 753b a867 f5bd
000000e0: 163e 583e f4a9 413c 162e 55be 393e b93e
000000f0: f083 e9bb b95e 0abe 301d 733e 11f9 c53c
00000100: a4c7 8d3c d012 1d3b 9b0f 863c b799 853d
00000110: 87ca 31bd e265 aa3b ee51 5a3c faaf ffbd
00000120: 6d41 14b5 5b35 b7b6 64e0 c8b5 edf4 1bb6
00000130: 6d5b 7eb6 125c 84b5 49a6 04b6 fca2 0ab4
00000140: 37d9 e533 e222 9fb6 1048 c0b4 ccbe 4935
00000150: 3bb0 b2b5 021e 1f35 6ebf 2db6 a891 90b6
00000160: 3a9f 33b5 f04c 8bb6 cca7 2635 247b 2134
00000170: ed3e 18b6 31eb 02b6 25aa 51b4 a602 28b6
00000180: 97d9 75b5 928f 3fb6 134c 56b6 7323 83b5
00000190: 69ad f034 4863 ccb3 7373 cbb4 c56a 93b5
000001a0: f655 08b6 3aa8 87b5 ed25 46b6 aee6 43b6
000001b0: 7bbf 9034 2eee 0f35 7e53 50b6 3f4f 18b6
000001c0: 5848 af35 5e79 2135 49ea c5b5 6c77 8033
000001d0: d13a 8ab6 bdb9 b3b6 ca61 34b5 505b f1b5
000001e0: 16e7 c8b6 3be1 01b6 cbf0 f9b5 10c6 94b6
000001f0: 366f aab6 f1a8 a4b6 9b47 28b6 533b 0ab3
00000200: bc1a c1b5 e3e1 4cb5 d30c 02b6 8053 ff34
00000210: 8405 22b6 1e94 ddb5 f50e 2db6 2067 7934
00000220: 9049 65b6 7a5a 7fb6 af03 55b6 9b73 5f35
00000230: d2c4 1b34 830c 9e35 0ccb 0eb5 0803 8eb6
00000240: 2df2 6abe 2659 2f3d 13f8 413e e05a 353e
00000250: 9b49 8ebe 4096 35bd bf4a a03e cf07 093d
00000260: 8982 5abe 0307 2a3e af19 e23b 4f9c 56be
00000270: 7dbe 16be c7f7 753e 1eb3 5a3d f208 9abe
00000280: 9e6d aebb 089c 2f3e 596e a0bd 65fc 43bb
00000290: 2827 093e 0286 023e 25fc 5bbe 57c9 20bd
000002a0: cbe1 013e c0c3 193d 014c 9fbd a6e5 dc3b
000002b0: 23f2 db3d ef8b 44bd 7354 98bd 5aa2 8a3d
000002c0: 91c0 0c3e bf4e 893d 5b20 5ebd d3b5 b33d
000002d0: 1f9d 053e 084f 9fbd 631b f2bc 37aa 3f3e
000002e0: f86d 883e fca4 65bd cfb9 16be 8151 e63d
000002f0: ed08 f23d 2c77 893a 9daa 933b 7794 d23a
00000300: 57b6 c93c 7940 91bc 5265 b1bc 8bbc 323d
00000310: c42e cebc f382 10bd 4a20 62bd e7b5 6c3e
00000320: a820 003e 1d00 66bd d3aa 21bd affa 323e
00000330: bdc5 413e fdbe ce3d b9c0 4ebc 76b9 82bd
00000340: 0abe dabb 51f3 f83d dd40 0e3d 6e16 0fbe
00000350: 1b13 9b3c 84d9 ea3d 3221 4bbc 8ad5 d3bd
00000360: 8e64 823e 7b0f 183d cac9 92be bb81 e83c
00000370: 1b69 a0be 6308 2c3d e97b 39be da3f 2f3d
00000380: d18e 8c3e 0b4e 98be 8752 8d3b 1a33 813e
00000390: 53ea 453d 9913 613e d919 0ebd e731 173e
000003a0: ec67 7bbb 5ff3 86be 7f28 1d3e 4fd6 d0bd
000003b0: c933 21bd 2950 28be 38c4 43bd a7d1 d53d
000003c0: fe82 933c 0b7e df3d 380d c83d 9513 853c
000003d0: fe8a a03d 56bf 89bc e1c8 0b3e b5e5 f23a
000003e0: aa43 e8bc b6b9 203b d0c6 a1bd 2d24 253d
000003f0: f1c6 1d3e 983c 323e f784 e9bc 6d72 2c3e

layer1.0.conv1.bias f4 [16]
-0.029862795 -1.5175262e-06 -0.014739325 -0.07309059 -0.021258289 -0.09629052 -0.10890715 -0.14028527
-0.11199506 -0.1801223 -0.09672427 0.0074478765 -8.929897e-06 1.0683454 -0.018702213 0.009814587
00000000: d2a2 f4bc cead cbb5 367d 71bc 85b0 95bd
00000010: dd25 aebc f733 c5bd b60a dfbd f1a6 0fbe
00000020: ab5d e5bd fb71 38be 6017 c6bd 510d f43b
00000030: 9ed1 15b7 8bbf 883f 6235 99bc 5dcd 203c

layer1.0.conv2.weight f4 [16, 16, 3, 3]
0.016788943 0.034242555 -0.008880149 0.011751245 0.034107354 -0.020911233 0.06694083 0.027960034
-0.022893807 -1.4621095e-06 -1.9553718e-06 1.359163e-06 9.355813e-07 4.2013073e-07 1.9650404e-06 -5.8114466e-07
1.4501671e-06 -1.0207294e-06 -0.035135254 -0.058135062 -0.024948992 -0.037567116 -0.06694612 0.007866002
-0.0500364 -0.017899483 0.0017649152 -0.006211417 -0.034648895 -0.058372438 -0.017246207 -0.044449013
-0.002641416 0.019243194 0.016794948 -0.021563785 0.03005486 0.005423051 0.006553491 0.0023316534
0.026084356 0.0102864755 0.012097168 0.056830857 0.030045034 0.018721933 -0.04101695 0.037665833
0.00012957017 -0.054091178 0.029498756 0.03505044 -0.027728768 0.03417134 0.04324286 -0.006425206
0.0357317 -0.030163836 -0.08822989 -0.0033182786 0.00050298683 -0.046583645 -0.029914677 0.0011869483
0.0016871598 0.08384657 -0.033306416 0.07107559 0.14635858 -0.068842344 -0.016910773 0.006980071
0.04101526 0.040042445 -0.04115627 0.007821745 0.047161557 0.016087737 -0.024913656 0.022586843
-0.014267739 0.020197656 -0.034715645 -0.016236937 0.05843029 -0.0053283903 -0.01359618 0.035100143
0.065488726 -0.011001295 0.060938958 0.14275682 0.08928831 0.027738187 0.13862532 0.07415942
-0.0156184705 -0.02409186 -0.014080163 -0.020296572 -0.00019538593 -0.042647816 0.013043162 -0.021233276
-0.010558852 -0.02881541 -0.014802114 -0.01020451 2.968528e-06 -1.2084563e-06 1.657259e-06 -7.191697e-08
6.888547e-07 -1.2501312e-07 2.6066707e-06 4.7145636e-06 -2.9590464e-07 -0.046818253 0.022548484 -0.04798743
-0.053244907 0.25320277 -0.053279404 -0.042774037 -0.01952844 -0.026281478 0.018824859 -0.040188454
0.012366165 -0.008950918 -0.03920195 0.008526068 0.019629851 0.0033191273 -0.002846653 0.018682277
0.022807026 -0.026901979 0.09107642 0.05511871 -0.034275472 0.04451976 0.02289429 0.004949407
-0.033481367 -0.04481818 -0.0054058135 -0.0273059 -0.07392429 0.026166636 0.056787748 0.036225934
0.074131936 2.22793e-06 1.4705152e-07 -1.9818287e-06 -1.6101714e-06 8.364898e-07 -1.3508283e-06 6.693021e-07
2.827189e-06 1.2104031e-06 -0.07900317 -0.060078546 0.014713129 -0.062400065 0.011327586 0.07586213
0.00523719 -0.019151254 -0.026863648 0.010900237 0.023942325 0.014941321 0.004119596 -0.03252252
0.10374327 0.02203417 0.008913142 0.011710083 -0.009709833 -0.03608723 -0.010338008 -0.021093547
-0.07018513 0.03562982 0.0077589527 0.0030231196 0.06199155 0.06726851 -0.0021296516 -0.1049288
0.07038669 -0.06735459 -0.10148107 -0.055387646 -0.060003184 -0.013098591 0.017804556 0.020208219
-0.060168914 0.15072763 -0.04681954 -0.18425408 -0.14954554 -0.15750243 0.013277692 0.0046370067
0.005249889 0.21610099 -0.011891383 0.07472232 0.36720425 0.00034251463 0.10162 0.10589747
0.012676864 0.10212862 -0.06241545 -0.005189453 -0.057413634 -0.020587051 -0.017854095 -0.055470865
-0.010758582 -0.046337448 -0.13332032 0.0056269206 -0.07173038 -0.13843381 0.008987204 0.031672683
-0.036690023 -0.14305896 0.026375076 -0.009721016 0.0044118264 -0.020822147 -0.045794755 0.027801264
0.006595191 -0.017370826 -0.021810852 -0.10181975 -0.004859196 -0.009042353 -0.09494472 0.0558593
0.024260385 0.064439096 0.057436094 -0.028277403 1.9413371e-06 -2.0243306e-07 -1.0822401e-06 7.235025e-07
00000000: f788 893c ec41 0c3d 0b7e 11bc 4b88 403c
00000010: 27b4 0b3d 094e abbc 4618 893d 710c e53c
00000020: cb8b bbbc b33d c4b5 0839 03b6 7c6c b635
00000030: a824 7b35 548e e134 23df 0336 f5ff 1bb5
00000040: 5da3 c235 ffff 88b5 fce9 0fbd 081f 6ebd
00000050: d461 ccbc fadf 19bd 0c1b 89bd 67e0 003c
00000060: f8f2 4cbd f0a1 92bc ba54 e73a 2489 cbbb
00000070: 00ec 0dbd f017 6fbd eb47 8dbc 2b10 36bd
00000080: 9b1b 2dbb e7a3 9d3c 8f95 893c 89a6 b0bc
00000090: 9c35 f63c d9b3 b13b abbe d63b a7ce 183b
000000a0: dcae d53c 9b88 283c 3333 463c 79c7 683d
000000b0: 0121 f63c bd5e 993c 6401 28bd 7d47 1a3d
000000c0: 3add 0739 b68e 5dbd 60a7 f13c 0d91 0f3d
000000d0: 7127 e3bc 3ff7 0b3d 6d1f 313d 898a d2bb
000000e0: 675b 123d 261a f7bc dfb1 b4bd 7a77 59bb
000000f0: e0da 033a 7ece 3ebd a00f f5bc 6093 9b3a
00000100: b023 dd3a c0b7 ab3d 4f6c 08bd 1490 913d
00000110: 06df 153e 37fd 8cbd 7688 8abc 14b9 e43b
00000120: 9eff 273d 8c03 243d 7a93 28bd c726 003c
00000130: 7a2c 413d 6eca 833c b917 ccbc 0b08 b93c
00000140: 3cc3 69bc 8e75 a53c fe31 0ebd 5303 85bc
00000150: 9a54 6f3d c799 aebb 83c2 5ebc 2bc5 0f3d
00000160: f41e 863d c73e 34bc 219b 793d d82e 123e
00000170: cadc b63d 323b e33c ccf3 0d3e e5e0 973d
00000180: 9de4 7fbc 4b5c c5bc 7cb0 66bc ff44 a6bc
00000190: 83e0 4cb9 7aaf 2ebd fdb2 553c 68f1 adbc
000001a0: 09ff 2cbc 4b0e ecbc 9184 72bc d130 27bc
000001b0: ec36 4736 3e32 a2b5 fc6e de35 c670 9ab3
000001c0: bce9 3835 583b 06b4 43ee 2e36 cb31 9e36
000001d0: d3dc 9eb4 7fc4 3fbd 99b7 b83c 788e 44bd
000001e0: 5517 5abd cba3 813e 813b 5abd d433 2fbd
000001f0: 1bfa 9fbc 414c d7bc 9736 9a3c a69c 24bd
00000200: 759b 4a3c dfa6 12bc 3992 20bd ecb0 0b3c
00000210: c8ce a03c b785 593b ea8e 3abb 930b 993c
00000220: cdd5 ba3c 8a61 dcbc 4686 ba3d 28c4 613d
00000230: 7064 0cbd 5a5a 363d ce8c bb3c a32e a23b
00000240: c223 09bd 4593 37bd 4023 b1bb 9fb0 dfbc
00000250: 9e65 97bd 6a5b d63c 459a 683d a561 143d
00000260: 7cd2 973d 8c83 1536 37e5 1d34 8fff 04b6
00000270: 111d d8b5 248b 6035 1b4e b5b5 17aa 3335
00000280: bdba 3d36 2275 a235 6acc a1bd ec14 76bd
00000290: 560f 713c 3697 7fbd 5797 393c 9b5d 9b3d
000002a0: bc9c ab3b 17e3 9cbc 2711 dcbc e896 323c
000002b0: b222 c43c 71cc 743c adfd 863b 5536 05bd
000002c0: 5a77 d43d 0181 b43c 6d08 123c a6db 3f3c
000002d0: fe15 1fbc 34d0 13bd c060 29bc 60cc acbc
000002e0: 39bd 8fbd 93f0 113d d03e fe3b 881f 463b
000002f0: daea 7d3d 13c4 893d a091 0bbb e9e4 d6bd
00000300: e626 903d 34f1 89bd 4fd5 cfbd 28de 62bd
00000310: e6c5 75bd 799b 56bc dcda 913c b58b a53c
00000320: ae73 76bd 5858 1a3e d9c5 3fbd 1aad 3cbe
00000330: 7722 19be 5148 21be ad8a 593c 08f2 973b
00000340: 4307 ac3b 9449 5d3e 13d4 42bc 0408 993d
00000350: 3202 bc3e 8993 b339 261e d03d c6e0 d83d
00000360: 9fb2 4f3c cf28 d13d 58a7 7fbd 490c aabb
00000370: 8f2a 6bbd 2da6 a8bc c042 92bc 6b35 63bd
00000380: c344 30bc 56cc 3dbd 1f85 08be 0862 b83b
00000390: 61e7 92bd 98c1 0dbe 113f 133c 37bb 013d
000003a0: 4748 16bd 0c7e 12be 8b10 d83c e544 1fbc
000003b0: 1591 903b 3593 aabc 4893 3bbd 7abf e33c
000003c0: 791c d83b 434d 8ebc acac b2bc e086 d0bd
000003d0: e439 9fbb 6126 14bc 6172 c2bd b9cc 643d
000003e0: b7bd c63c a5f8 833d 1c42 6b3d 03a6 e7bc
000003f0: eb47 0236 605c 59b4 7d41 91b5 b736 4235

layer1.0.conv2.bias f4 [16]
0.1964067 -0.087554574 -0.31852147 0.50970274 0.3509231 -0.1116607 -0.021405831 0.075111024
-0.023779193 0.6412988 5.8996404e-05 -0.32125232 0.038176008 0.8292257 0.11248084 -9.561605e-06
00000000: d71e 493e d04f b3bd 3f15 a3be e17b 023f
00000010: 31ac b33e 5dae e4bd 485b afbc cfd3 993d
00000020: 95cc c2bc 282c 243f e872 7738 2f7b a4be
00000030: 725e 1c3d 2348 543f 5b5c e63d c86a 20b7

layer1.0.shortcut.0.weight f4 [16, 8, 1, 1]
-0.005210205 -0.08261819 -0.04579362 -0.10034704 0.0167437 0.8944831 -0.05550261 -0.18672636
0.19533864 -0.20802942 0.08771467 -0.038622204 0.031197436 0.010822241 -0.042569496 0.04861054
0.18420054 -0.08944245 0.14901187 0.13426863 -0.016566021 -0.031605247 -0.010865213 0.23644345
-0.45571053 0.5771031 -0.20657204 -0.037755653 0.011897187 0.004470703 0.016472794 -0.17495999
-0.3502948 -0.12809281 0.14034747 0.027820978 -0.0847388 -0.26484063 -0.03394567 0.78980225
-0.0046075513 0.016650515 -0.0069490364 -0.2520941 0.067797095 -0.005936374 -0.03711768 0.033325013
-0.112019315 0.0708751 -0.08865341 0.1414892 -0.029696507 -0.031870533 0.2128995 -0.010686121
0.59783334 -0.27039066 0.3031663 -0.034836367 0.021197429 -0.030052138 0.014260478 0.16871987
-0.133839 -0.059368648 -0.011010816 -0.0077398256 0.20514032 -0.049237747 0.11252315 0.0069053182
-0.07836818 -0.31308296 -0.16752455 0.06687935 0.08336583 -0.07184636 0.107091896 -0.260615
-0.101190045 0.15119024 -0.11913262 0.20203508 0.16494827 -0.02886454 0.07619692 -0.014512045
-0.34782836 0.18982507 0.4230737 0.044644486 0.050160043 0.7777536 -0.079420686 0.7658951
0.13884336 0.018072162 -0.030254329 0.057187185 -0.063237205 -0.12104033 -0.07807908 0.056449577
0.19416799 -0.10030136 0.19050056 -0.118128926 -0.10228218 0.032934964 -0.10100677 0.093421906
-0.085422985 0.044808183 -0.09842899 0.1508704 -0.14685671 -0.0930726 -0.061252575 -0.0063821976
-1.0240547e-05 3.8808827e-09 -1.322046e-05 -1.0566061e-05 5.923317e-07 -3.973926e-06 -6.290805e-06 -4.292721e-06
00000000: 5eba aabb ba33 a9bd 1792 3bbd c082 cdbd
00000010: 152a 893c d8fc 643f b456 63bd 3235 3fbe
00000020: da06 483e aa05 55be c0a3 b33d 5132 1ebd
00000030: c491 ff3c c54f 313c 5a5d 2ebd d81b 473d
00000040: 119f 3c3e 9a2d b7bd 9196 183e b77d 093e
00000050: 77b5 87bc 8174 01bd 0204 32bc 3b1e 723e
00000060: e452 e9be 07bd 133f 9f87 53be aca5 1abd
00000070: 6bec 423c fa7e 923b f4f1 863c b628 33be
00000080: d759 b3be c32a 03be 3fb7 0f3e d2e8 e33c
00000090: 898b adbd 3199 87be 9d0a 0bbd 7b30 4a3f
000000a0: f1fa 96bb a966 883c beb4 e3bb 7a12 81be
000000b0: 34d9 8a3d ea85 c2bb b508 18bd cf7f 083d
000000c0: 626a e5bd f726 913d eb8f b5bd 8be2 103e
000000d0: 1746 f3bc ad8a 02bd 5402 5a3e d714 2fbc
000000e0: 9b0b 193f a570 8abe 9d38 9b3e 94b0 0ebd
000000f0: 3ba6 ad3c e72f f6bc c8a4 693c e7c4 2c3e
00000100: 170d 09be 8a2c 73bd b666 34bc 5d9e fdbb
00000110: 4e10 523e 85ad 49bd 8a72 e63d 0246 e23b
00000120: 7f7f a0bd 694c a0be 8e8b 2bbe 0af8 883d
00000130: b4bb aa3d 2f24 93bd ff52 db3d 546f 85be
00000140: ba3c cfbd 9dd1 1a3e cefb f3bd 49e2 4e3e
00000150: 33e8 283e 5475 ecbc 210d 9c3d eec3 6dbc
00000160: 8f16 b2be 8161 423e 1e9d d83e 23dd 363d
00000170: 9e74 4d3d dc1a 473f 50a7 a2bd b411 443f
00000180: f42c 0e3e 120c 943c edd7 f7bc 1c3d 6a3d
00000190: 8282 81bd fee3 f7bd ede7 9fbd ac37 673d
000001a0: f9d3 463e cd6a cdbd 9412 433e 94ed f1bd
000001b0: 5279 d1bd d0e6 063d a3dc cebd fc53 bf3d
000001c0: 3ff2 aebd c988 373d 2395 c9bd c57d 1a3e
000001d0: 9b61 16be d99c bebd fbe3 7abd c121 d1bb
000001e0: d1ce 2bb7 9b58 8531 71cd 5db7 e344 31b7
000001f0: b900 1f35 c457 85b6 9a15 d3b6 310a 90b6

layer1.0.shortcut.0.bias f4 [16]
0.19639634 -0.08756315 -0.31852126 0.50971353 0.35092553 -0.11165738 -0.021407586 0.07512304
-0.023781305 0.6413023 5.73828e-05 -0.3212528 0.03818197 0.82923275 0.1124878 -1.0664858e-05
00000000: 1f1c 493e 4f54 b3bd 3815 a3be 967c 023f
00000010: 83ac b33e a0ac e4bd f65e afbc 1cda 993d
00000020: 03d1 c2bc 632c 243f 50ae 7038 3f7b a4be
00000030: b364 1c3d 9948 543f 0160 e63d 37ed 32b7

layer1.1.conv1.weight f4 [16, 16, 3, 3]
0.026964232 -0.021578822 -0.035729513 0.0072302627 0.0016274501 -0.055519007 -0.0145453075 0.053848904
-0.008284609 -0.0530506 0.043010235 0.070676714 -0.062424913 0.07847888 0.012199984 0.113852635
-0.0017745822 0.0004863003 -0.041262094 -0.045889337 -0.060288332 -0.12988575 -0.06904395 -0.11825581
-0.08476917 -0.052971955 -0.12898803 0.03811044 -0.10730632 0.033692848 0.07837343 -0.06950928
0.0076282355 0.07794889 -0.078847334 0.06951068 0.00107923 0.013972062 -0.0023172756 0.04425936
0.028709816 0.02620729 -0.005035646 -0.08056723 -0.036391012 0.12776232 0.08749574 0.06083895
0.12324099 0.21659401 0.14566801 0.013838865 0.24636231 0.10181376 0.04113173 -0.1759406
-0.074961364 -0.05592405 -0.12761115 -0.12621242 -0.044447105 -0.089598015 0.019210014 0.018872531
0.027625386 -0.030351376 0.08536913 0.0733426 -0.028966818 -0.06495117 0.05169686 0.0071042837
-0.046852186 0.19540662 -0.029364757 -0.00017163559 0.13115737 -0.02914457 -0.044396218 0.2573768
0.016447116 0.00693979 0.0366139 -0.0153076835 0.047028925 0.072424866 0.09209862 -0.024048608
0.02056598 0.011293296 -0.11212246 -0.1450995 -0.089768074 -0.09487374 -0.18121077 -0.0075870124
-0.13064992 0.0774121 -0.1599807 -0.0070426874 0.03586781 0.010748969 -0.019903474 0.037650853
-0.0012792136 0.002070251 0.052210275 0.0037553038 -0.08631327 -0.022461 -0.10661946 -0.0821868
-0.035924494 -0.07444839 0.002384346 0.08158336 0.08720758 0.09648166 0.027778806 0.097595155
0.06599258 0.043710012 0.05526304 -0.17563115 -0.02241617 -0.089914836 -0.093467325 -0.0039402866
-0.054300785 -0.13901389 -0.020964023 -0.07458465 0.033344973 0.13032731 0.06830813 -1.6721868e-06
9.834638e-07 1.6088011e-06 2.53439e-06 2.911914e-06 1.8958156e-06 -4.5349967e-07 3.0104573e-07 2.6141981e-06
0.07511431 0.022772543 0.004418751 0.010214403 0.010083184 -0.0139278015 -0.023683852 0.002497531
-0.053896926 -0.16000368 0.016850244 0.077208936 -0.12001582 -4.7346173e-05 0.041357696 -0.047703527
0.06557672 -0.06669305 0.019519372 0.019157968 0.035332434 -0.094298474 -0.12758006 0.20374583
0.18296786 -0.0075671733 -0.048750196 0.29320142 0.0031527414 -0.22673102 0.49588546 0.06519091
-0.35071248 0.02718649 -0.17743051 -0.10968991 0.047928497 0.00507227 -0.004228936 0.08528465
-0.0074321856 -0.026634136 -0.027022967 -0.047440775 0.026166739 -0.026024044 0.027442517 0.03434495
0.03203758 0.10503935 0.025374047 0.024791105 0.05755531 -0.003012192 -0.04664446 -0.029030086
0.023510862 -0.05287876 -0.119105555 -0.046574537 0.032416042 -0.043192383 -0.09538667 -0.08286255
0.002662625 0.24231587 -0.23609406 -0.12132653 0.40291867 -0.08359009 -0.08513054 -0.07559415
-0.13767456 -0.08932412 0.1158504 -0.08831135 -0.094769955 0.16667682 -0.100769766 -0.120395705
-0.071380876 0.05306129 0.059315227 0.0022960613 0.025255244 -0.0054403865 -0.027575215 0.0151262395
-0.008833401 0.0263777 0.033676017 0.053955063 -0.075181305 0.02646517 0.027101023 0.0057308455
-0.006202768 0.0060748337 -0.020909937 -0.027021771 -0.038613006 -0.004335468 -0.01968843 -0.06849671
0.01986377 0.013851969 0.007017471 0.033023164 0.036641303 -0.022167034 0.004384836 -0.020552708
00000000: 18e4 dc3c 12c6 b0bc 1c59 12bd d7eb ec3b
00000010: 2a50 d53a e667 63bd 714f 6ebc ab90 5c3d
00000020: 2bbc 07bc 964b 59bd 802b 303d f4be 903d
00000030: 44b1 7fbd 89b9 a03d 71e2 473c 922b e93d
00000040: 1999 e8ba 1ff6 fe39 7102 29bd 75f6 3bbd
00000050: e6f0 76bd c500 05be ea66 8dbd 1a30 f2bd
00000060: 759b adbd 1ff9 58bd 7015 04be b119 1c3d
00000070: 6ac3 dbbd 8301 0a3d 4082 a03d e25a 8ebd
00000080: 47f6 f93b aba3 9f3d b67a a1bd 9e5b 8e3d
00000090: f374 8d3a 13eb 643c 6fdd 17bb 4d49 353d
000000a0: d930 eb3c acb0 d63c 0f02 a5bb 6f00 a5bd
000000b0: be0e 15bd 20d4 023e f730 b33d 4332 793d
000000c0: c665 fc3d d2ca 5d3e ff29 153e 68bc 623c
000000d0: 6746 7c3e bc83 d03d bf79 283d c629 34be
000000e0: 5885 99bd 9e10 65bd 7fac 02be d43d 01be
000000f0: 2b0e 36bd 2a7f b7bd 525e 9d3c 919a 9a3c
00000100: a24e e23c 73a3 f8bc 03d6 ae3d a534 963d
00000110: d24b edbc 1e05 85bd 16c0 533d 0dcb e83b
00000120: 14e8 3fbd ac18 483e 5c8e f0bc 14f9 33b9
00000130: 1e4e 063e 98c0 eebc cfd8 35bd e4c6 833e
00000140: 1abc 863c 2e67 e33b 75f8 153d 14cd 7abc
00000150: 67a1 403d 7d53 943d 349e bc3d 9601 c5bc
00000160: fc79 a83c 8407 393c 76a0 e5bd f794 14be
00000170: 53d8 b7bd 2a4d c2bd 518f 39be 799c f8bb
00000180: 18c9 05be 3c8a 9e3d fbd1 23be 58c6 e6bb
00000190: 20ea 123d 721c 303c 9c0c a3bc c837 1a3d
000001a0: 49ab a7ba 0cad 073b 71da 553d 8b1b 763b
000001b0: 03c5 b0bd 2200 b8bc 4e5b dabd 8e51 a8bd
000001c0: 9025 13bd 6678 98bd b042 1c3b 2d15 a73d
000001d0: e399 b23d 2d98 c53d 6190 e33c f8df c73d
000001e0: 1e27 873d 4509 333d 7f5b 623d a7d8 33be
000001f0: 1ea2 b7bc 4525 b8bd cc6b bfbd 851d 81bb
00000200: 806a 5ebd a859 0ebe bebc abbc d6bf 98bd
00000210: bd94 083d 8674 053e 22e5 8b3d e76f e0b5
00000220: 8fff 8335 fced d735 7d14 2a36 4d6a 4336
00000230: ba73 fe35 8578 f3b4 699f a134 956f 2f36
00000240: 88d5 993d 7c8d ba3c 2ccb 903b 505a 273c
00000250: f033 253c 6f31 64bc a304 c2bc 9ead 233b
00000260: 06c3 5cbd 01d8 23be 8609 8a3c b81f 9e3d
00000270: dbca f5bd 9195 46b8 b066 293d c664 43bd
00000280: 164d 863d 5e96 88bd 17e7 9f3c 2cf1 9c3c
00000290: beb8 103d 8f1f c1bd 59a4 02be bfa2 503e
000002a0: ed5b 3b3e 0df6 f7bb 49ae 47bd 7f1e 963e
000002b0: 399e 4e3b 2d2c 68be b3e4 fd3e d082 853d
000002c0: 9690 b3be 34b6 de3c 58b0 35be 1ba5 e0bd
000002d0: ac50 443d 4935 a63b e392 8abb b8a9 ae3d
000002e0: b189 f3bb d52f dabc 455f ddbc 4251 42bd
000002f0: a15b d63c 6030 d5bc 21cf e03c 4aad 0c3d
00000300: d639 033d df1e d73d 3cdd cf3c b716 cb3c
00000310: 1ebf 6b3d 3268 45bb 430e 3fbd 81d0 edbc
00000320: da99 c03c 6697 58bd 9ded f3bd f1c4 3ebd
00000330: afc6 043d 7fea 30bd 165a c3bd d7b3 a9bd
00000340: 6f7f 2e3b a721 783e a4c2 71be 0b7a f8bd
00000350: 5b4b ce3e 4831 abbd ec58 aebd 1bd1 9abd
00000360: 8ffa 0cbe 90ef b6bd f942 ed3d 95dc b4bd
00000370: c016 c2bd 54ad 2a3e 6160 cebd 0692 f6bd
00000380: 2330 92bd cc56 593d 86f4 723d 8479 163b
00000390: 16e4 ce3c 4545 b2bb 6be5 e1bc 0cd4 773c
000003a0: f8b9 10bc 0c16 d83c ddef 093d fcff 5c3d
000003b0: a8f8 99bd 7ccd d83c f702 de3c d1c9 bb3b
000003c0: 9740 cbbb 660f c73b 514b abbc c35c ddbc
000003d0: ac28 1ebd 8b10 8ebb a149 a1bc 0148 8cbd
000003e0: 58b9 a23c 5ef3 623c d0f2 e53b 4c43 073d
000003f0: 3115 163d a497 b5bc acae 8f3b 275e a8bc

layer1.1.conv1.bias f4 [16]
-0.3600012 -0.32584232 -0.37462044 -0.024231918 -0.5490742 -0.35458618 -0.3777923 -0.27244252
-0.3916151 0.07761314 -0.7681519 -0.5364912 -0.33513024 -0.3986794 -0.55599684 -0.7898947
00000000: 1452 b8be ced4 a6be 40ce bfbe 0482 c6bc
00000010: 2090 0cbf 528c b5be fe6d c1be 967d 8bbe
00000020: c681 c8be a3f3 9e3d 9aa5 44bf 7d57 09bf
00000030: 3196 abbe b51f ccbe cf55 0ebf 8a36 4abf

layer1.1.conv2.weight f4 [16, 16, 3, 3]
0.0041180113 -0.060210105 -0.054737363 -0.021228785 -0.060992982 -0.010856356 -0.01978652 -0.032783724
-0.05230682 -0.03009291 -0.03265671 -0.004104241 0.0013837663 0.01119499 0.07101642 0.012408054
0.018308055 0.031904448 -0.05960492 -0.047877386 0.07739908 -0.12172706 -0.045008924 0.024628626
-0.041166816 0.001593673 0.0176283 -0.04643068 -0.027358111 0.043111343 0.11097884 0.08093405
0.06279248 0.25305542 0.1500305 -0.010689565 -0.1792108 -0.16095509 -0.030120939 -0.18820226
-0.1914403 -0.09739715 -0.020805867 -0.030508552 0.021464804 -0.008142066 0.00880771 -0.02078684
0.049405392 -0.01656832 0.017555906 0.13989212 -0.020846592 0.020141082 -0.09532885 -0.041171003
-0.005936629 -0.0072454605 -0.014313869 -0.004137704 -0.0126862405 -0.06826626 -0.0010724028 0.0465831
0.10095164 0.03449444 0.1354114 0.1562595 0.12694794 0.024273245 0.09504445 0.026991274
0.057587422 0.007841164 -0.015592671 -0.01238751 -0.04201292 -0.06795215 0.04455302 -0.014869282
-0.026015114 0.013572423 -0.015210964 -0.00068988424 0.07392828 0.041218538 0.03244531 0.051495496
0.043433312 -0.10564324 0.048307467 0.051132165 0.038354296 -0.038031965 -0.009911826 0.010190201
0.026315983 -0.036196534 -0.035051335 0.021350376 0.01901402 -0.07440524 -0.07169317 0.037070952
-0.052529514 -0.101696186 -0.08650349 -0.1170369 0.007778015 0.007629112 0.006467602 -8.588281e-05
0.054947272 -0.004876744 -0.037168395 -0.008408096 0.0027813273 -0.040855486 -0.05322323 0.111835994
-0.034545977 -0.05816088 0.05968513 0.036482695 -0.0069966456 0.05710069 0.030753935 0.012838627
0.06530281 -0.056950185 -0.08408116 -0.062958755 -0.04522038 -0.053052787 -0.007581967 0.010805957
-0.016260736 0.010366421 -0.010197375 -0.013016003 0.025911419 -0.020056712 -0.04338976 -0.02811291
-0.020373622 -0.017135268 -0.07452116 0.04100785 -0.0049074716 -0.050825436 -0.06841784 -0.009595798
0.06660607 0.02068635 0.09097062 -0.01076057 -0.045350485 -0.08127957 0.038373437 -0.10946276
0.009830474 0.18335775 0.1033091 0.15166712 -0.050917808 0.04861803 0.039988033 -0.058360443
-0.10818177 -0.07197966 -0.09891569 0.020499175 0.0034687014 0.054742496 -0.031805445 0.016189532
-0.0032716629 -0.009393854 -0.032489713 -0.062771074 0.056257892 -0.06636468 -0.031955577 0.013492422
-0.14285146 -0.039914355 -0.009020302 -0.07167115 0.04935808 0.0026148364 -0.059876487 -0.05892043
-0.0114782145 -0.07263285 0.029176282 -0.027664805 -0.010793866 -0.013644772 0.06840785 -0.14393128
0.10812749 -0.057776373 -0.0904733 0.1537466 -0.012037744 -0.049732823 0.013747346 0.059155036
0.031463034 0.0015465609 -0.039202724 -0.012972439 0.08805872 -0.00032819874 0.0077063954 0.057273723
0.14574616 0.038099013 -0.16815288 0.07817225 0.016431445 -0.1194413 0.080801405 0.063740544
-0.090446614 -0.032490134 0.10555112 0.06247368 0.1193413 0.39701998 0.20011057 -0.061007652
0.09080664 0.010968316 0.015005801 0.0162872 -0.13879107 0.071249545 0.039036512 -0.08536569
-0.0018885334 0.039906498 -0.07279102 0.056287922 -0.0010527266 -0.05242417 -0.06415069 0.0029674864
-0.039151922 -0.016779479 0.07102223 -0.07251724 0.09287007 -0.12157536 -0.11999273 0.17436568
00000000: 62f0 863b df9e 76bd 4934 60bd fde7 adbc
00000010: c7d3 79bd dbde 31bc 5717 a2bc 3a48 06bd
00000020: ad3f 56bd 6885 f6bc 0bc3 05bd de7c 86bb
00000030: 7e5f b53a 316b 373c 0f71 913d 274b 4b3c
00000040: c6fa 953c 3dae 023d 4a24 74bd 141b 44bd
00000050: 6983 9e3d 094c f9bd 475b 38bd f9c1 c93c
00000060: 899e 28bd cbe2 d03a 3969 903c 192e 3ebd
00000070: 1e1e e0bc 8595 303d e048 e33d c0c0 a53d
00000080: 5899 803d 7b90 813e 98a1 193e 4923 2fbc
00000090: 0983 37be 69d1 24be 30c0 f6bc 18b8 40be
000000a0: ed08 44be 2878 c7bd 1171 aabc 12ed f9bc
000000b0: f5d6 af3c 4d66 05bc 374e 103c 2a49 aabc
000000c0: 4f5d 4a3d 49ba 87bc 67d1 8f3c e13f 0f3e
000000d0: 79c6 aabc e9fe a43c c63b c3bd eda2 28bd
000000e0: 0e88 c2bb 546b edbb b884 6abc 9495 87bb
000000f0: f3d9 4fbc 2ecf 8bbd de8f 8cba eccd 3e3d
00000100: bcbf ce3d 0b4a 0d3d 49a9 0a3e 7e02 203e
00000110: a4fe 013e afd8 c63c aaa6 c23d ce1c dd3c
00000120: cae0 6b3d 3a78 003c 6778 7fbc fcf4 4abc
00000130: bd15 2cbd 7f2a 8bbd 3a7d 363d 4a9e 73bc
00000140: a61d d5bc de5e 5e3c 6837 79bc 59d9 34ba
00000150: b667 973d c5d4 283d 60e5 043d f1ec 523d
00000160: 21e7 313d 7c5b d8bd 0dde 453d f66f 513d
00000170: 6519 1d3d 68c7 1bbd 3665 22bc cdf4 263c
00000180: 9e94 d73c d142 14bd fd91 0fbd fce6 ae3c
00000190: 4ac3 9b3c c661 98bd ded3 92bd b6d7 173d
000001a0: 3029 57bd 1746 d0bd be28 b1bd 0bb1 efbd
000001b0: b8de fe3b a1fd f93b 2eee d33b fc1b b4b8
000001c0: 6410 613d 18cd 9fbb e33d 18bd 1cc2 09bc
000001d0: ee46 363b 1558 27bd 9a00 5abd 450a e53d
000001e0: 1580 0dbd 1a3a 6ebd 6578 743d e16e 153d
000001f0: 1e44 e5bb 6ae2 693d adef fb3c 1b59 523c
00000200: 7bbd 853d 9944 69bd be32 acbd 85f0 80bd
00000210: 0139 39bd e14d 59bd 2672 f8bb 780b 313c
00000220: 3c35 85bc ecd7 293c e412 27bc 1341 55bc
00000230: 2f44 d43c f94d a4bc 76b9 31bd 0c4d e6bc
00000240: 95e6 a6bc 435f 8cbc 8d9e 98bd d9f7 273d
00000250: dbce a0bb 552e 50bd a71e 8cbd b237 1dbc
00000260: c368 883d 6c76 a93c ce4e ba3d 1a4d 30bc
00000270: 6ec1 39bd e775 a6bd 772d 1d3d 032e e0bd
00000280: ff0f 213c 22c2 3b3e b993 d33d a04e 1b3e
00000290: 318f 50bd b323 473d 7eca 233d 5c0b 6fbd
000002a0: 678e ddbd 126a 93bd 4f94 cabd e3ed a73c
000002b0: 2753 633b ab39 603d 6d46 02bd e99f 843c
000002c0: 6569 56bb aee8 19bc ef13 05bd 1f8e 80bd
000002d0: ad6e 663d 35ea 87bd dae3 02bd 520f 5d3c
000002e0: a747 12be 3c7d 23bd e4c9 13bc 53c8 92bd
000002f0: b32b 4a3d ad5d 2b3b 0c41 75bd 8c56 71bd
00000300: 1f0f 3cbc 88c0 94bd 1903 ef3c 4da1 e2bc
00000310: c1d8 30bc 528e 5fbc 6a19 8c3d b962 13be
00000320: f271 dd3d eba6 6cbd 114a b9bd c06f 1d3e
00000330: f539 45bc a5b4 4bbd 8c3c 613c 8d4c 723d
00000340: 62df 003d f9b5 ca3a 0993 20bd 5a8a 54bc
00000350: 2158 b43d 1712 acb9 ee85 fc3b da97 6a3d
00000360: 7b3e 153e b60d 1c3d 4530 2cbe c618 a03d
00000370: 3d9b 863c a49d f4bd 357b a53d 678a 823d
00000380: 133c b9bd 6014 05bd 302b d83d 67e4 7f3d
00000390: 3669 f43d 3446 cb3e c9e9 4c3e 29e3 79bd
000003a0: d5f8 b93d 74b4 333c e4da 753c bc6c 853c
000003b0: 3f1f 0ebe 48eb 913d c0e4 1f3d 35d4 aebd
000003c0: aa88 f7ba ff74 233d 7513 95bd 2a8e 663d
000003d0: a5fb 89ba baba 56bd 7061 83bd 297a 423b
000003e0: c45d 20bd 1e75 89bc 1a74 913d eb83 94bd
000003f0: aa32 be3d 81fc f8bd c0be f5bd eb8c 323e

layer1.1.conv2.bias f4 [16]
-0.15285328 -0.08636709 -0.16303603 -0.24060355 -0.06255499 -0.016463097 -0.30636603 -0.21391205
-0.2284567 0.20940654 -0.22492532 -0.22583671 -0.21326467 -0.018487321 0.0437402 -0.164031
00000000: 9285 1cbe 3be1 b0bd ebf2 26be c760 76be
00000010: d51c 80bd 9edd 86bc 02dc 9cbe c30b 5bbe
00000020: 8ef0 69be ab6e 563e d352 66be bd41 67be
00000030: 0e62 5abe b972 97bc ed28 333d bef7 27be

linear1.weight f4 [100, 1024]
0.014980231 0.02043346 0.02053868 0.013613486 0.0058925007 -0.0037582158 0.012384503 0.023592554
-0.0030047654 0.020274127 0.027187204 0.01661009 -0.0045276904 -0.021659976 -0.007812482 0.0024009119
0.011593107 0.045371257 0.05915336 0.04933605 -0.012266198 -0.022249283 -0.03183814 -0.031487994
0.0069357757 0.0043030116 0.0134967705 0.012187598 -0.03257399 -0.021095179 -0.008230759 -0.0111805815
0.0012118209 -0.011869904 -0.024065267 -0.0158778 -0.031979952 0.0021345343 0.04627956 -0.0003214236
0.02954054 0.0005566452 -0.002629184 -0.009990683 -0.012606689 -0.008912639 0.01937812 -0.0067231227
0.0065583047 0.0006915391 -0.008891508 -0.013355275 -0.031794462 -0.026633997 -0.005336259 -0.00031367072
0.017642936 -0.0022862358 -0.005669009 -0.0077696433 -0.024128638 -0.015390857 0.004820853 0.020000331
0.026831435 0.008184988 0.018741943 0.033688612 0.012490691 0.022888312 0.008877589 -0.0428497
0.0052087903 0.0070554307 0.021898417 0.058469772 0.0011331721 -0.0048801904 -0.02897416 -0.035594348
-0.040469546 -0.015722258 0.061767995 0.056131586 0.024195774 0.0070541194 -0.008850389 -0.046427134
-0.0041925614 0.0043679196 0.07229902 0.062463816 0.0637369 0.053398885 0.0394085 -0.033617146
0.02404552 -0.009926472 0.023563964 0.049603943 0.06552944 0.06433279 0.060768787 0.006769319
0.0175563 0.008202433 0.040402953 0.07962262 0.07986 0.04368996 0.009640688 0.0071150116
0.014011507 0.010941318 0.03258277 0.05082032 0.040368192 0.057178397 -0.029887773 0.0049644024
0.04771316 0.02629064 -0.03927563 -0.009336884 0.023372063 0.032611698 0.009757016 0.07121274
0.00964191 -0.019520855 -0.013934645 0.010597044 0.014260052 0.024677247 0.040358186 -0.025894025
0.008921984 -0.010984032 -0.0049152668 -0.01086887 0.03432498 0.05665067 0.045787837 -0.0054734065
0.007777435 -0.012896897 -0.017579628 -0.019990588 0.050426032 0.077135876 0.08559898 0.037792876
0.0131424125 -0.004790223 -0.025193864 -0.036487322 0.0067317546 0.07687946 0.07267724 0.040258966
-0.008162703 0.009987971 0.0012657924 0.012259139 0.036922827 0.06181049 0.059073586 0.04095201
-0.0020595898 0.058957405 0.07437305 0.07085428 0.061781947 -0.009973187 -0.06813413 -0.025257938
-0.027848352 -0.009097864 0.035995074 0.01579357 -0.026709488 -0.10424235 -0.12434021 -0.022726746
-0.017633585 -0.03116922 -0.009500374 -0.024820086 -0.04419531 -0.057016805 -0.03453848 0.025420992
-0.005745954 0.023096085 0.017579356 -0.006928281 -0.028385248 -0.015704319 0.001771476 -0.037133858
-0.011977848 0.010783871 0.023701597 0.025279028 -0.009560827 -0.038099706 -0.027703924 -0.0715958
0.009102817 0.033390183 0.012826056 -0.03015016 -0.015881956 -0.007922452 -0.0033231555 -0.050928704
0.009339283 -0.003657545 0.00032304905 -0.013168009 -0.030492319 0.010050689 0.011639341 -0.0416533
-0.015552044 -0.04125976 -0.05724664 -0.06764596 -0.007731643 0.05273975 0.013807892 0.016591815
-0.018624932 -0.009525019 0.020841017 -0.0027939293 0.0043214085 0.035110034 0.010454861 0.004764444
-0.014262267 0.030780232 0.020591453 -0.004893518 -0.017232144 -0.003753527 -0.046214573 -0.054177765
0.00023590062 0.07681923 0.10067892 0.102139436 0.032215063 -0.076440655 -0.11501148 -0.08238921
00000000: a56f 753c 1264 a73c bc40 a83c 190b 5f3c
00000010: e115 c13b 664c 76bb 5fe8 4a3c 2c45 c13c
00000020: 99eb 44bb ed15 a63c b3b7 de3c e211 883c
00000030: 055d 94bb 4370 b1bc d9ff ffbb 9e58 1d3b
00000040: 04f1 3d3c 36d7 393d cb4a 723d 9914 4a3d
00000050: 2af8 48bc 2144 b6bc b668 02bd 8ef9 00bd
00000060: 8145 e33b 4700 8d3b 8f21 5d3c 7eae 473c
00000070: 4e6c 05bd cccf acbc 4eda 06bc c22e 37bc
00000080: f6d5 9e3a fc79 42bc 8624 c5bc 2912 82bc
00000090: 69fd 02bd 8be3 0b3b a38f 3d3d bf84 a8b9
000000a0: 01ff f13c d4eb 113a 634e 2cbb f6af 23bc
000000b0: 498c 4ebc 5106 12bc ddbe 9e3c a44d dcbb
000000c0: 0ce7 d63b 6748 353a b0ad 11bc 15d0 5abc
000000d0: e93a 02bd 8a2f dabc c9db aebb 2c74 a4b9
000000e0: eb87 903c acd4 15bb 18c3 b9bb 7e98 febb
000000f0: 6ca9 c5bc ef29 7cbc 3ff8 9d3b bcd7 a33c
00000100: 99cd db3c 541a 063c b488 993c 12fd 093d
00000110: c1a5 4c3c 4580 bb3c 4f73 113c 2b83 2fbd
00000120: 80ae aa3b 3e31 e73b 4f64 b33c 007e 6f3d
00000130: f286 943a 01ea 9fbb 385b edbc 61cb 11bd
00000140: 65c3 25bd f7cb 80bc 7000 7d3d 3cea 653d
00000150: 3736 c63c 3e26 e73b 3901 11bc 612a 3ebd
00000160: c161 89bb c420 8f3b 8211 943d 0fda 7f3d
00000170: 7e88 823d cab8 5a3d cf6a 213d 22b2 09bd
00000180: 1cfb c43c a4a2 22bc 3709 c13c 812d 4b3d
00000190: 4d34 863d e9c0 833d b1e8 783d 2ad1 dd3b
000001a0: 3bd2 8f3c 7f63 063c 917d 253d 2f11 a33d
000001b0: a48d a33d 3ef4 323d faf3 1d3c 0b25 e93b
000001c0: 8590 653c 3743 333c 8375 053d f828 503d
000001d0: 1e59 253d e533 6a3d 34d7 f4bc 6dac a23b
000001e0: e06e 433d 785f d73c 7cdf 20bd bbf9 18bc
000001f0: c576 bf3c d893 053d e4db 1f3c fcd7 913d
00000200: 1af9 1d3c 33ea 9fbc 234e 64bc 399f 2d3c
00000210: fea2 693c f027 ca3c a04e 253d b51f d4bc
00000220: 832d 123c 5ff6 33bc 3f10 a1bb 5813 32bc
00000230: 5a98 0c3d 880a 683d 078c 3b3d 435a b3bb
00000240: dad9 fe3b 824d 53bc 2703 90bc 4dc3 a3bc
00000250: 878b 4e3d 6af9 9d3d 854e af3d b4cc 1a3d
00000260: 4653 573c 4ef7 9cbb 5d63 cebc bb73 15bd
00000270: 0d96 dc3b fa72 9d3d ced7 943d 96e6 243d
00000280: dcbc 05bc 96a4 233c f2e8 a53a 8eda 483c
00000290: 643c 173d ff2c 7d3d 25f7 713d 4bbd 273d
000002a0: 2ffa 06bb 527d 713d e650 983d 0c1c 913d
000002b0: 110f 7d3d 9466 23bc e889 8bbd bce9 cebc
000002c0: 3a22 e4bc 350f 15bc 926f 133d 8461 813c
000002d0: dbcd dabc 037d d5bd 14a6 febd 712d babc
000002e0: 4f74 90bc 9856 ffbc 75a7 1bbc 7e53 cbbc
000002f0: 2406 35bd 748a 69bd 3978 0dbd af3f d03c
00000300: 8e48 bcbb 0034 bd3c 9502 903c a206 e3bb
00000310: 2e88 e8bc 58a6 80bc df30 e83a ac19 18bd
00000320: bc3e 44bc d5ae 303c da29 c23c f715 cf3c
00000330: 04a5 1cbc 700e 1cbd 57f3 e2bc d2a0 92bd
00000340: fb23 153c 25c4 083d 6124 523c 78fd f6bc
00000350: e01a 82bc 2ccd 01bc 4cc9 59bb 9e9a 50bd
00000360: cb03 193c 6cb3 6fbb e95e a939 a2be 57bc
00000370: 07cb f9bc a5ab 243c efb2 3e3c a79c 2abd
00000380: 00ce 7ebc feff 28bd 747b 6abd f789 8abd
00000390: b959 fdbb a305 583d 7f3a 623c 8feb 873c
000003a0: 5093 98bc d30e 1cbc c8ba aa3c 5b1a 37bb
000003b0: 9a9a 8d3b 8acf 0f3d de4a 2b3c 0e1f 9c3b
000003c0: 49ac 69bc d326 fc3c 68af a83c ce59 a0bb
000003d0: 6d2a 8dbc bcfd 75bb 7e4b 3dbd 81e9 5dbd
000003e0: 175c 7739 6753 9d3d c030 ce3d 7b2e d13d
000003f0: f1f3 033d eb8c 9cbd 248b ebbd adbb a8bd

linear1.bias f4 [100]
0.020906907 0.0069404175 0.051323153 0.126519 0.19215903 0.04656001 0.21131401 -0.004027875
-2.0309815e-06 0.04935899 -0.05296977 0.003905585 -0.1733781 -0.04416441 0.044158783 -0.012301516
-1.3412607e-06 0.07687336 -0.04559876 -0.04531759 -0.006349632 0.007056711 0.07042743 0.0989831
0.285647 0.25255248 0.04306289 0.06798249 0.019871632 -0.0047603957 -0.06051099 0.13608341
0.078103825 -0.035958 0.077589065 0.37927675 0.036908124 0.14783038 -0.04599307 0.09553101
0.22599882 0.19181292 0.22857115 0.22738922 0.35482547 -0.18746102 0.1607611 -4.551861e-07
-0.06625898 0.07228146 -1.685189e-06 -0.032853443 -0.06329145 0.14786541 -0.016820498 0.18840708
0.095092095 0.027345052 -0.041894607 0.067308925 0.013153965 0.029221272 0.0877309 -0.03880297
0.09441587 0.19069107 -0.11665102 0.28908467 -0.027754704 0.2192218 0.21544613 0.25595593
0.023648072 -0.022184115 0.03713233 0.11127785 -0.047355216 0.026686043 0.32184228 0.14452294
-0.02706664 0.06040454 0.15747549 0.22452849 -0.06228147 -0.07012527 -0.021572677 0.2491662
0.0057555535 0.20238706 0.10288364 0.17492253 0.0029142422 0.03358203 -0.047975402 0.036737345
0.05378449 -0.009880618 0.35632885 0.049479738
00000000: f644 ab3c 716c e33b 3a38 523d 328e 013e
00000010: 56c5 443e b6b5 3e3d b362 583e 44fc 83bb
00000020: ff4b 08b6 a72c 4a3d d4f6 58bd d8f4 7f3b
00000030: 078a 31be bee5 34bd d7df 343d 4c8c 49bc
00000040: 5e05 b4b5 c86f 9d3d c4c5 3abd f09e 39bd
00000050: 9310 d0bb fb3b e73b 423c 903d a7b7 ca3d
00000060: 5340 923e 8f4e 813e b762 303d 673a 8b3d
00000070: d5c9 a23c 18fd 9bbb 5fda 77bd 7359 0b3e
00000080: e6f4 9f3d b248 13bd 04e7 9e3d 9030 c23e
00000090: f92c 173d d960 173e 3b63 3cbd c3a5 c33d
000000a0: 3c6c 673e 9b6a 443e 8e0e 6a3e b8d8 683e
000000b0: afab b53e c8f5 3fbe 8f9e 243e 4d60 f4b4
000000c0: cab2 87bd 4d08 943d a72e e2b5 5591 06bd
000000d0: f39e 81bd 086a 173e 24cb 89bc c9ed 403e
000000e0: a5bf c23d bb02 e03c ae99 2bbd 43d9 893d
000000f0: ba83 573c 7361 ef3c 42ac b33d ddef 1ebd
00000100: 1c5d c13d 8544 433e bbe6 eebd e802 943e
00000110: d55d e3bc ae7b 603e e99d 5c3e a80c 833e
00000120: 9ab9 c13c 76bb b5bc 1218 183d a4e5 e33d
00000130: 8bf7 41bd b09c da3c 83c8 a43e d2fd 133e
00000140: dcba ddbc c06a 773d 4141 213e ccea 653e
00000150: db1a 7fbd d69d 8fbd 2fb9 b0bc 6d25 7f3e
00000160: 1599 bc3b 8e3e 4f3e a8b4 d23d e41e 333e
00000170: dffc 3e3b 508d 093d db81 44bd e679 163d
00000180: 204d 5c3d 51e2 21bc bc70 b63e 44ab 4a3d
