mlp-iris/mlp_iris.onnx (onnx, 838 bytes, 6 tensors)

means f4 [4]
00000000: 548d ba40 4ba6 4340 87b5 6f40 ed05 9a3f
5.829752 3.0570247 3.7454545 1.2033058

stds f4 [4]
00000000: f2a6 513f 2f77 e03e 8a23 e13f f01d 453f
0.81895363 0.4384093 1.7588971 0.76998806

core.fc1.weight f4 [5, 4]
00000000: b05c e0bd 38a2 ce3d 1045 79be 2858 963e
00000010: c671 a93e 1e5b 0abf a871 bc3f 9228 7b3f
00000020: 4b30 293f 3cfc 25bf 7595 533f b43e 263f
00000030: 9c04 ac3e 3530 fd3d 2485 9cbe ba4f 5a3d
00000040: 2757 f4bd 2acc bcbe 17ba cd3f b4bb fc3f
-0.10955179 0.100895345 -0.24342752 0.29364133 0.33094615 -0.54045284 1.4722185 0.9810878
0.66089314 -0.64838004 0.8264993 0.6493943 0.33597267 0.123627104 -0.30570328 0.05329869
-0.119306855 -0.36874515 1.6072415 1.9744782

core.fc1.bias f4 [5]
00000000: 2a14 cabe ee7d 54bf 8f57 0e40 df9a 98be
00000010: 4370 82bf
-0.3946851 -0.83004653 2.2240942 -0.29805657 -1.019051

core.fc2.weight f4 [3, 5]
00000000: f726 e2be 2dfe 59be 249c 07c0 b2c2 c33e
00000010: 7c04 04bf 87b2 14be 80dd 3fbf c74d d83f
00000020: c940 9e3e 92f5 a0bf 936c 10be eda1 e13f
00000030: 12b4 1fbb 4441 503e 21ee 1240
-0.44170353 -0.21288367 -2.118905 0.38234478 -0.5156934 -0.14521228 -0.7494736 1.6898736
0.30908802 -1.2574942 -0.14103918 1.7627541 -0.0024368805 0.20337397 2.2957842

core.fc2.bias f4 [3]
00000000: 699c 5240 ecaa 44bf b6e3 0cc0
3.2907965 -0.76823306 -2.2013984
